fn (%x: Tensor[(1, 100, 300), float32] /* ty=Tensor[(1, 100, 300), float32] */, %w1: Tensor[(1, 200, 300), float32] /* ty=Tensor[(1, 200, 300), float32] */, %w2: Tensor[(1, 200, 300), float32] /* ty=Tensor[(1, 200, 300), float32] */, %w3: Tensor[(1, 200, 300), float32] /* ty=Tensor[(1, 200, 300), float32] */) -> (Tensor[(1, 100, 200), float32], Tensor[(1, 100, 200), float32], Tensor[(1, 100, 200), float32]) {
  %0 = (%w1, %w2, %w3) /* ty=(Tensor[(1, 200, 300), float32], Tensor[(1, 200, 300), float32], Tensor[(1, 200, 300), float32]) */;
  %1 = concatenate(%0, axis=1) /* ty=Tensor[(1, 600, 300), float32] */;
  %2 = nn.batch_matmul(%x, %1, transpose_b=True) /* ty=Tensor[(1, 100, 600), float32] */;
  %3 = strided_slice(%2, begin=[0, 0, 0], end=[-1, -1, 200], strides=[1, 1, 1], slice_mode="size", axes=None) /* ty=Tensor[(1, 100, 200), float32] */;
  %4 = strided_slice(%2, begin=[0, 0, 200], end=[-1, -1, 200], strides=[1, 1, 1], slice_mode="size", axes=None) /* ty=Tensor[(1, 100, 200), float32] */;
  %5 = strided_slice(%2, begin=[0, 0, 400], end=[-1, -1, 200], strides=[1, 1, 1], slice_mode="size", axes=None) /* ty=Tensor[(1, 100, 200), float32] */;
  (%3, %4, %5) /* ty=(Tensor[(1, 100, 200), float32], Tensor[(1, 100, 200), float32], Tensor[(1, 100, 200), float32]) */
} /* ty=fn (Tensor[(1, 100, 300), float32], Tensor[(1, 200, 300), float32], Tensor[(1, 200, 300), float32], Tensor[(1, 200, 300), float32]) -> (Tensor[(1, 100, 200), float32], Tensor[(1, 100, 200), float32], Tensor[(1, 100, 200), float32]) */